checkpoints/driver.pth (torch, 903439 bytes, 32 tensors)

fc1.weight f4 [512, 87]
00000000: a9bf dabd fc72 1dbc dd67 383d 3cc9 b63d
00000010: 5318 83bd 293c 0e3d f3b5 b5bd 6289 d63a
00000020: 4db6 b7bd 014a 1b3c f79b acbd ce8d 3b3d
00000030: 3825 393d 19e2 793d f8a3 aebd 5f19 e5bd
00000040: 556d f63d 171a 633d fe11 b83d d232 383d
00000050: 8728 163c 8fe2 593d bdf4 e9bc de7a e7bc
00000060: 0915 88bc 7846 313d 612c b1bd 9328 67bd
00000070: 14c2 063d 30d5 0bbb f079 dc3d a901 bbbd
00000080: ff31 2abd 3211 a4bd 7b49 d3bc 9055 9d3b
00000090: 74de babc 6067 85bd 1a5f 8bbb 7568 843d
000000a0: 02a5 b5bd fc1b d43c 294e e83d 6d18 4fbd
000000b0: 2195 0abd 108f b7bc 418b 3abd cb80 96bd
000000c0: e7fa 9a3d 1b65 a9bd b587 08bd f2d9 0a3d
000000d0: 437b 563d cba5 eabc 8104 a3bd fd3c b43d
000000e0: 49f5 a83d 8978 5c3d 2d5b 17bb e299 b23d
000000f0: b1ea d5bd 9237 edbb 8546 c03d e3ff 9f3d
00000100: 6fc7 4bbd a1b8 e9bc a75d 0f3d c365 12be
00000110: 8478 3ebd 0fd4 e1bd d497 0b3d 37ce 2cbd
00000120: 3858 133d ab09 2d3c d855 863d f096 ba3d
00000130: 8564 e2ba a8b5 053e 04c8 97bc cea0 b7bd
00000140: 918c 22bd bba9 11bc 5b2d 35bb 5508 49bd
00000150: a21a b13d a43b 07bd 6a59 1a3d 1268 cc3c
00000160: 6f1c 81bd 07eb 613d e435 d03b 49f3 5abd
00000170: 5aa8 713d ff65 08bd c916 31bd 4dfe bd3d
00000180: 1504 913c a118 e3bc 3db5 973d aecb 333d
00000190: 5dcd 8a3d d1ca b6bc 34b0 f6bc 5897 31bd
000001a0: 7135 483d 04ec a4bd cf8d 213d f8ea d6bc
000001b0: 5f81 00bd 0ede 59bc 7b33 c63d 195f b0bd
000001c0: 3117 de3d 7295 7e3d 8e72 a43d 7817 ad3c
000001d0: 6f7a 73bd 5147 14bd 2c64 5d3d e7a0 5f3c
000001e0: 9f97 4d3d 61a9 0c3d fbf6 1fbd 4574 fa3a
000001f0: 7a9e 42bd c76e 13bc df9f cdbc a269 9dbc
00000200: d361 233d bebb dbbc c4f7 4e3d 1092 8abc
00000210: 92a3 353d e7ff e03c 2fef ed3c 45de ab3d
00000220: 05f4 0fbd ff8a 8dbd 30b3 b7bd 73fa 0ebd
00000230: c272 2e3d 00ae 0f3d 39b9 18bd 0902 a93d
00000240: d844 c43d 8f97 b03d 3ee4 a53c d595 df3c
00000250: 740e 83bd 6eee 51bd 1ae8 a63d 3b9e 54bc
00000260: d931 97bd b089 d73b ecb9 50bd 085c bd3c
00000270: 9cef 8bbd d1e0 1bbd c7f8 f8bd cf89 8b3d
00000280: 4078 fbbd 3aeb 333d f177 07be 70b9 813d
00000290: d46d 513c f1a8 283c e988 14bd 94e3 073e
000002a0: 2556 f2bd a535 0b3e ff1e 99bd 8df2 bbbc
000002b0: 63fd 36bd e60e 62bd c8e8 e5bc 2c99 b5bd
000002c0: 0c53 acbd 81d0 013b 9c45 9c3d e5f7 99bd
000002d0: cc4e 253d 3170 1bbd 86dd 4e3d 3639 cdbc
000002e0: 1574 88bd 32dd 303a 40d2 4abd ac06 753d
000002f0: 0e5c 973c d750 b73c 110b cabd 22c7 c83d
00000300: 789f e83b 072f 54bd cc89 1f3d 0420 813d
00000310: f47f c1bc c62e 033d fcf9 8f3d a490 bbbd
00000320: 85b3 8a3d af4f b3bd b5c1 3c3d 3840 de3c
00000330: b586 e2bc 4461 c83d ac30 0d3c c7d6 783d
00000340: 4f25 f93c 0332 f13c e302 873d e7d5 d13c
00000350: 6e0d ca3d 0154 7e3d c951 5c3b e2c3 cf3d
00000360: 7442 3fbd 3cf5 5a3d bfb7 efbd 2e72 37bd
00000370: 611c 2bbd 3ae0 973d 99a0 843b a18a d8bd
00000380: c53b 2cbc f360 06bd 070b e3bb bc37 c0bc
00000390: dcfe 9a3d 9365 86bc c004 c5bc e225 043d
000003a0: 8f08 a73d 3709 6bbd 6297 3cbc 673d 523d
000003b0: 8106 84bd 2eca 4ebb 3a15 bc3d 9a52 6dbd
000003c0: 0d22 e03d 7623 143d 9d40 813b e4d3 973d
000003d0: 5fc4 343e dc48 cabd 82c7 6dbd 6f1e 25bd
000003e0: ff93 58bd 9db1 64bd 5f0b 58bd 4576 27bd
000003f0: 2c56 b83c eaec fabc 87b2 bbbd d1c5 3b3d
-0.106810875 -0.009609934 0.045020927 0.08925101 -0.06401124 0.034725342 -0.08872595 0.0016367848
-0.08970318 0.009478093 -0.084281854 0.045789532 0.04520151 0.06100664 -0.08527368 -0.1118648
0.12032572 0.055444803 0.08987807 0.04497034 0.009164936 0.05319458 -0.028559083 -0.02825683
-0.016611593 0.043280095 -0.08651043 -0.05643518 0.03289993 -0.0021336786 0.10765445 -0.09131176
-0.041551586 -0.08011092 -0.025791874 0.0048014596 -0.022811152 -0.06513858 -0.0042532803 0.06465236
-0.08869363 0.02589225 0.11343033 -0.050560404 -0.033833627 -0.022407085 -0.04554296 -0.07348784
0.07567387 -0.082712375 -0.033332545 0.033899255 0.052363645 -0.02864351 -0.079598434 0.08800695
0.082499094 0.05382589 -0.0023095116 0.08720757 -0.104451545 -0.0072392905 0.093884505 0.078124784
-0.04975074 -0.02853042 0.035001423 -0.14296632 -0.04650165 -0.11026775 0.03408034 -0.04218885
0.035972804 0.010561387 0.06559342 0.0911082 -0.0017272389 0.13057578 -0.018527992 -0.08966218
-0.039684836 -0.008890565 -0.0027645442 -0.04908021 0.08647658 -0.033015862 0.03768293 0.024951968
-0.063042514 0.05515578 0.0063540805 -0.05345467 0.058998443 -0.033300396 -0.04323462 0.0927702
0.017702142 -0.027721705 0.07407615 0.043895416 0.06777451 -0.022313507 -0.030113317 -0.043357223
0.04887909 -0.08052829 0.03944188 -0.026235089 -0.031373378 -0.013297571 0.09677788 -0.086118884
0.10844267 0.06215424 0.08029662 0.021129355 -0.059442934 -0.036200825 0.05405061 0.013649202
0.050193425 0.03434122 -0.0390539 0.0019108137 -0.047514416 -0.008998579 -0.025100647 -0.019215409
0.039888214 -0.02682292 0.050529256 -0.016915351 0.044345446 0.027465774 0.029044716 0.08392004
-0.035144825 -0.06911277 -0.08969724 -0.034906816 0.04258991 0.03507805 -0.037286017 0.08252341
0.095834434 0.086226575 0.020250436 0.027293125 -0.06399241 -0.051252775 0.081497386 -0.012977178
-0.073825546 0.006577693 -0.05095856 0.023115173 -0.06832811 -0.0380562 -0.121568255 0.06813394
-0.12278795 0.0439255 -0.13229348 0.063341975 0.012782533 0.010294185 -0.03626338 0.13270408
-0.11832837 0.13594683 -0.07476615 -0.022942806 -0.044675242 -0.05518999 -0.0280651 -0.08867106
-0.084142774 0.0019808116 0.076304644 -0.07517985 0.04035835 -0.03794879 0.05050423 -0.025051694
-0.06662766 0.0006746828 -0.049516916 0.059820816 0.018476512 0.022377415 -0.09865392 0.098036066
0.0070990883 -0.05180266 0.038949773 0.063049346 -0.023620583 0.03202703 0.070301026 -0.091584474
0.06772522 -0.08755433 0.04608317 0.027130231 -0.027652124 0.09784177 0.008617561 0.060751703
0.030413298 0.029442793 0.065923475 0.025614692 0.09865843 0.06209183 0.0033618084 0.101447836
-0.046694234 0.05345653 -0.11704969 -0.044786625 -0.04177511 0.07415815 0.004047465 -0.10573316
-0.010512297 -0.0328073 -0.006928805 -0.023464076 0.07568142 -0.016405856 -0.024050117 0.03226269
0.08155929 -0.057381835 -0.011510702 0.05132809 -0.06446553 -0.0031553614 0.09183736 -0.057940103
0.10943995 0.03616663 0.00394447 0.07413462 0.17653035 -0.09877178 -0.058051594 -0.040312227
-0.052875515 -0.055833448 -0.05274522 -0.040884275 0.022502027 -0.030630548 -0.09164911 0.04584295

fc1.bias f4 [512]
00000000: 4356 0b3d ac9c cbbd 5579 473d 7532 cc3d
00000010: 9b22 acbd 19f5 88bd 2a0d 59bd 52de b5bc
00000020: fd20 77bb a9ff ae3d f30c 2bbd 83d4 a53d
00000030: e8ed e3bb 6a4c c43d 07f3 a5bc ab08 a4bd
00000040: 9978 c5bd 29f2 a4bc 976b 843d b8ce 5f3b
00000050: 49c4 0a3d 5aa9 43bd 226e 07bd 204d c0bd
00000060: be6e b83d 32d8 b5bd 402a 5bbd 309a a23d
00000070: aa1c 9bbd c672 4cbd 8fef d5bd a0dc 923d
00000080: a418 bbbb c38b 323c 1fcc 14bd faa4 eb3c
00000090: b353 653c 83d7 c43d 0e09 85bd 6cc6 0bbc
000000a0: bc39 80bd 76f4 3ebd 0b67 af3d c896 9cbc
000000b0: b239 7d3d af5b 89bd d36e 22bd cf67 b4bd
000000c0: 373d a9bd 2ad3 a23b 2bf9 59bd f2f5 b7bd
000000d0: 73c3 d33d 97a9 f83c b41e 103d a529 0bbc
000000e0: 397e 97bd a459 9dbd 4201 2cbc dbb5 0ebd
000000f0: c953 db3c 1b7d acbd cd83 b03d f06b 52bd
00000100: c5ca 5cbc 4a88 173d fa6d 90bc d035 acbd
00000110: 5533 20bd 0693 9c3c 17ae 85bd 1f02 86bd
00000120: e5b0 943d 25fc e33c eb1a 85bd 9480 0a3d
00000130: 2512 e13c 2015 8c3d c1c1 8c3c bb4f 35bd
00000140: f0a2 3e3d 7d66 afbd cc79 f0bc 884b b43d
00000150: fb9a 58bd c5f2 6a3d 768a 7a3d f203 e33c
00000160: c985 163d 91ee a73c 3ef7 bfbd b03a 8ebd
00000170: 4585 873c 1890 ebbb 938d 3d3d 1da5 b7bb
00000180: e345 8abc 4e9b d5bd cb4d 9dbd c99f 85bd
00000190: 8e41 6a3d faec 93bc 1559 aa3d 82ea 7abd
000001a0: 38f3 5a3c 0e38 67bd ffed 72bd 164c 03bc
000001b0: 4c6f d5bd 7dbb c3bd 896f 36bd f6b1 5c3c
000001c0: 6737 81bd e1a4 863d e008 b8bd 75b0 3f3d
000001d0: 54df 813d b725 dfbd c4c5 233c 18e0 843b
000001e0: cefa 89bd 0e4a 5c3d e8f6 c83b 9b76 b63c
000001f0: ad8c 7f3c 21d7 8ebd f8e4 313d def7 a13d
00000200: 8f6a 1bb9 2943 c43d a3a8 74bd 2a75 753d
00000210: 548e 763d f48d 993b 2837 b1bc 1975 863d
00000220: 9263 cbbc f47c 833c fa3b 4fbd e7e4 ab3d
00000230: 5d8c b13d 5605 4bbd 6435 923d 3cfc 2d3d
00000240: 7648 b53d 317e ac3d f520 31bd 734f 333d
00000250: e85d eabc afac 8d3d 6ee9 263d fbfc 3cbd
00000260: 782c 973d 2e29 a1bd ae8e 8a3d 5f72 91bd
00000270: f585 093d d1b0 953c df03 bebd 9b34 d13c
00000280: bc5d 46bc 816a 063c 1706 c73d a87c d83d
00000290: a3d6 353d 7f7e b03d 151c 54bc 5966 9f3b
000002a0: 20ae 093c b6aa f43b af02 9a3d ca79 633d
000002b0: d904 bdbd a9ac 983d 28b1 553d 0e15 1b3d
000002c0: 74dd 9b3d 2d3e 2c3d 68bc 2c3d 83f0 9e3d
000002d0: 7acf c8bd 888a 93bd 46fe 973d 43c1 393d
000002e0: ed07 d93c 8467 773c 50cc 0cbd 19b3 8a3d
000002f0: 95b7 d93d cfe0 59bd 776f bebd 9494 863c
00000300: 3096 8abd cffe 8ebd 2879 2b3d fcda 65bd
00000310: feb6 adbd 0bbd 80bd bb21 bdbd 056f c3bd
00000320: f30c 97bd 85f6 5fbc 294e aa3d 4e0e 593d
00000330: 1ebe 273d 5910 b3bd b3e5 f73b 6f6b a53d
00000340: 9b9e ccbd 57f6 c03d 3aaa cabd c936 d4bd
00000350: bb5e b13d 989e c13a 8b99 b73d e558 75bd
00000360: 2623 3fbd 36ee e1bd 50b0 b1b7 c309 6c3d
00000370: a176 2a3d c9ac 8e3d 7615 4dbd 0d65 813d
00000380: 0245 83bd a2a6 a2bd 27e3 783d a3bc 153d
00000390: fd0c 2e3d 8ef8 bf3d dc4a d33c bdca a4bd
000003a0: 554a bfbc 0cf2 8dbd c548 82bd 71b3 25bc
000003b0: f068 823d 3805 a43d 6842 cdbd c709 5e3c
000003c0: 6f14 1a3d d818 9cbd 7dfb d7bd 70b0 1fbd
000003d0: f134 7a3d 7673 993c 469b 883c 594c 253d
000003e0: 4875 babc c2ae 69bd 183d d63d 0472 c9bd
000003f0: d544 65bb a326 99bd 4ad2 c9bd 1085 3e3d
0.034017812 -0.09941992 0.048699696 0.099705614 -0.08405038 -0.06687374 -0.05299107 -0.022200737
-0.0037708872 0.08544857 -0.041760396 0.08097174 -0.006955851 0.09584887 -0.020257486 -0.08009466
-0.09642143 -0.020135002 0.06465834 0.0034150314 0.0338786 -0.047768928 -0.033064015 -0.093897104
0.090054974 -0.088791266 -0.05350709 0.07939565 -0.075738266 -0.049914144 -0.10446083 0.07170987
-0.0057097245 0.01089758 -0.036327478 0.02876519 0.013997006 0.09611418 -0.06495868 -0.008531194
-0.06261012 -0.046619855 0.08564576 -0.019114867 0.0618226 -0.067069404 -0.03965647 -0.088088624
-0.08263629 0.0049690204 -0.05321614 -0.08982457 0.10340013 0.030354304 0.03518553 -0.008493816
-0.07397122 -0.07683113 -0.010498347 -0.0348414 0.02677335 -0.084222995 0.08618889 -0.05137247
-0.013476078 0.03699521 -0.017630566 -0.084087014 -0.039111454 0.019113075 -0.06527346 -0.06543373
0.072603025 0.027830193 -0.06499275 0.033814028 0.027474472 0.06839967 0.017182233 -0.04426549
0.046542108 -0.0856447 -0.029354952 0.08803469 -0.052882176 0.05736043 0.061167203 0.027711842
0.03674868 0.0204995 -0.093733296 -0.069447875 0.01654304 -0.007188808 0.046277594 -0.0056044
-0.016879028 -0.10430013 -0.076808535 -0.06524617 0.057191424 -0.018057335 0.08317772 -0.0612588
0.013363652 -0.056449942 -0.059309002 -0.008013746 -0.10421619 -0.09557245 -0.044539962 0.013470164
-0.06309395 0.06574417 -0.08986068 0.046799142 0.063414246 -0.108958654 0.0099958815 0.0040550344
-0.0673729 0.05378156 0.006132949 0.022273352 0.015597505 -0.06974626 0.043431252 0.07908605
-0.00014821648 0.09583122 -0.059731137 0.05992619 0.06019433 0.0046861116 -0.021632746 0.06565303
-0.024827752 0.016050793 -0.050594307 0.08393269 0.0866935 -0.049565636 0.0713909 0.042476878
0.088517115 0.084225066 -0.04324432 0.04377694 -0.028609231 0.069177024 0.04074996 -0.0461397
0.073815286 -0.078691825 0.06765495 -0.07101893 0.033575017 0.01827279 -0.09278082 0.02553778
-0.012107309 0.008204103 0.097179584 0.10570651 0.044394147 0.08617877 -0.012946148 0.0048644957
0.008403331 0.0074666394 0.07520043 0.05553607 -0.0922944 0.07454807 0.052170902 0.037861876
0.07610598 0.042051483 0.042171866 0.07760718 -0.09805198 -0.07204157 0.07421546 0.045350324
0.026493037 0.015100364 -0.034374535 0.067724414 0.106307186 -0.05319291 -0.09298604 0.01642827
-0.06766927 -0.06982195 0.04186359 -0.056117043 -0.084821686 -0.06286057 -0.09234949 -0.0954266
-0.07375517 -0.013669615 0.08315689 0.052992158 0.040952794 -0.087433524 0.007565224 0.08077132
-0.09991189 0.094219856 -0.098957494 -0.10362012 0.086606465 0.0014771996 0.08964833 -0.05989923
-0.04666438 -0.11031763 -2.1182146e-05 0.057626497 0.04161704 0.0696655 -0.050069295 0.06318102
-0.064096466 -0.07941939 0.060763504 0.03655685 0.042492855 0.0937358 0.025792532 -0.08046482
-0.023350874 -0.069309324 -0.06361536 -0.010113583 0.063676715 0.08008808 -0.100224316 0.013552136
0.037617143 -0.07621926 -0.105460145 -0.038986623 0.061085645 0.018731814 0.016675603 0.040356014
-0.022761002 -0.057051428 0.104608715 -0.098362 -0.0034983654 -0.074780725 -0.098545626 0.046513617

bn1.weight f4 [512]
00000000: 867a 7b3f 1f8e 833f 101f 813f 66fb 743f
00000010: 489a 7f3f cca4 783f 0823 813f ff61 7c3f
00000020: 104c 823f 64be 803f 8652 883f e37b 713f
00000030: 0b73 833f ce5c 7c3f 49d1 873f 8ee5 6f3f
00000040: e2fd 823f c59e 7a3f 24c2 813f 1b4d 7a3f
00000050: 07c7 833f c2dc 813f 994f 813f 47f9 7b3f
00000060: 2105 813f baef 813f 4577 873f d800 803f
00000070: ba29 7a3f cad6 8d3f b96f 7f3f c354 7a3f
00000080: 8018 763f 3121 783f 7635 7d3f 69b1 8e3f
00000090: 99e4 823f 5b2d 753f 78c4 743f bd51 7a3f
000000a0: ac1b 883f 8e44 733f 43aa 773f 6c27 733f
000000b0: 8f17 793f 8309 803f 2430 8a3f 5133 833f
000000c0: 665a 763f de49 7f3f eb05 7a3f 303a 863f
000000d0: 89d1 783f eb6b 8b3f 1b57 7f3f 6f3e 893f
000000e0: 551b 743f 533b 803f 11e2 8e3f db52 7b3f
000000f0: 6e12 743f 202f 7e3f d439 7e3f 8556 823f
00000100: 225c 813f 584e 7f3f 0513 873f f79c 893f
00000110: eca2 793f 4e94 823f 1209 803f 4643 813f
00000120: 70a0 793f eafa 793f d329 843f 00d6 7b3f
00000130: 4478 7b3f 49c4 783f 4589 7b3f 9d0f 803f
00000140: 64c0 813f ecbd 853f b1b8 793f 8ef2 783f
00000150: 12c3 833f 0f9e 7d3f 4066 813f 0cf6 7a3f
00000160: f71f 833f db7e 7a3f 71ab 773f 3a7b 853f
00000170: 5fb9 7d3f 0b4d 7b3f 581f 813f 0dea 763f
00000180: c85b 7b3f e61b 843f 0791 7a3f d183 7b3f
00000190: 0882 793f 7cba 723f a3ca 813f 661d 873f
000001a0: da22 7b3f 381e 803f b6bf 833f 76b6 783f
000001b0: 5e34 803f 0b46 7e3f 514a 833f c7ec 823f
000001c0: 1392 7e3f d24a 803f 1eb5 7c3f 3d3c 833f
000001d0: 9223 783f f267 7b3f 94fa 7a3f 58ea 803f
000001e0: a5a9 7a3f a6d1 813f 794d 823f ea9e 7a3f
000001f0: 2289 7b3f adfa 873f ec5e 7b3f 3af9 7c3f
00000200: 22ac 7e3f f6a3 753f 8dee 7b3f 059d 873f
00000210: 9b6f 7d3f 70d1 773f 1a16 773f 4c82 7c3f
00000220: 7b38 853f 00c0 833f b9dc 8e3f 474a 7f3f
00000230: ff96 7d3f e040 873f de3d 833f 957f 7e3f
00000240: 13be 7b3f 73bc 763f af66 7c3f 395e 873f
00000250: 73af 7e3f ef5e 773f 4fa8 813f 4544 833f
00000260: bcea 733f 0507 7e3f eb81 7a3f b9fe 7a3f
00000270: 54b2 813f 06cd 803f c755 773f fd50 753f
00000280: c03a 883f 4277 843f 7562 703f 067a 7f3f
00000290: 8113 803f f231 783f 8c2b 7c3f 2ef6 793f
000002a0: 4bd7 793f 43a5 7e3f 4fb2 793f 948f 723f
000002b0: a285 873f bbc6 7f3f 0ba6 813f 0853 7a3f
000002c0: f3c1 853f 8f38 7b3f d98c 793f 135e 793f
000002d0: fa39 813f 556b 773f f565 7c3f 9417 813f
000002e0: 42d6 833f e697 7f3f 4080 773f f461 813f
000002f0: ef6e 7e3f 93e6 793f 5f6d 803f ee9b 7a3f
00000300: 8b89 783f 2d70 833f 40cb 733f df9e 783f
00000310: 1ffc 713f 3f5e 823f eeca 7b3f 9480 7b3f
00000320: bcb1 7e3f c965 7e3f b380 7a3f b381 7d3f
00000330: f001 843f 7866 7f3f 15a8 793f 09a7 7b3f
00000340: 7211 803f 7c8f 753f d46e 7e3f 1103 783f
00000350: d4d7 7a3f 49f2 753f e4a1 7a3f 7143 7c3f
00000360: 6a5b 853f cf10 8a3f c2c6 7e3f 7472 863f
00000370: d031 793f aa38 833f ecde 7c3f a974 7a3f
00000380: caa0 743f 63c7 773f 34de 763f 7071 7e3f
00000390: 114b 843f ea9a 813f 19ee 7b3f 4281 7c3f
000003a0: 1d72 7a3f 2c81 883f f079 7a3f 209e 7d3f
000003b0: 29c6 7d3f 2116 723f 7572 863f 1a97 743f
000003c0: 2c76 7b3f 33d5 783f 41e9 843f 3bd8 823f
000003d0: 6d92 753f 4895 7d3f ad62 7a3f 67e2 793f
000003e0: 1bc1 763f d77b 803f 340b 743f 5a42 823f
000003f0: e2d8 7f3f 5c11 7e3f f80b 813f bac6 803f
0.9823383 1.0277747 1.0087605 0.95696104 0.9984479 0.9712646 1.0088816 0.9858703
1.0179462 1.0058103 1.0650184 0.9432966 1.0269483 0.9857911 1.0610744 0.9370965
1.0233729 0.97898513 1.0137372 0.97773904 1.0295113 1.0145495 1.0102416 0.9842724
1.007969 1.0151284 1.0583273 1.0000257 0.9771992 1.1081173 0.9977985 0.97785586
0.96131134 0.96925646 0.989097 1.1147891 1.0226012 0.9577233 0.9561229 0.9778097
1.0633445 0.9502648 0.96744174 0.9498203 0.9730157 1.0002903 1.0795941 1.0250036
0.9623169 0.9972209 0.9766528 1.0486507 0.97194725 1.0892309 0.9974229 1.0722178
0.95354205 1.0018104 1.116274 0.981733 0.9534062 0.9929066 0.9930699 1.0182654
1.0106242 0.9972892 1.0552679 1.0751027 0.97514224 1.0201509 1.0002768 1.0098655
0.97510433 0.9764849 1.0325264 0.98373413 0.98230386 0.9717451 0.9825633 1.0004765
1.0136838 1.0448585 0.9754744 0.9724511 1.0293906 0.99069303 1.0109329 0.9803169
1.024413 0.97849816 0.96745974 1.0428231 0.9911098 0.98164433 1.008769 0.96450883
0.9818692 1.0321014 0.97877544 0.9824801 0.97464037 0.948158 1.0139965 1.0555847
0.98100054 1.0009222 1.029288 0.97153413 1.0015981 0.9932563 1.0257055 1.0228509
0.9944164 1.0022833 0.9871386 1.0252758 0.96929276 0.9820548 0.980386 1.0071516
0.97915107 1.0142105 1.0179893 0.97898734 0.98256123 1.0623375 0.98191714 0.9881779
0.99481404 0.9595331 0.98410875 1.0594794 0.9899842 0.9680395 0.965181 0.9863632
1.0407861 1.0292969 1.1161109 0.99722713 0.99058527 1.0566673 1.0253255 0.99413425
0.98336905 0.963813 0.9859418 1.057563 0.99486464 0.9662923 1.0129489 1.0255209
0.9528005 0.9922946 0.9785449 0.98044926 1.0132546 1.0062568 0.9661526 0.95826703
1.0642929 1.0348895 0.93900234 0.9979557 1.0005952 0.9695121 0.9850395 0.97641265
0.97594136 0.9947092 0.975377 0.9475033 1.0587656 0.99912614 1.0128797 0.97782946
1.0449814 0.98133177 0.9748054 0.9740917 1.0095818 0.9664815 0.98593074 1.008532
1.0299761 0.99841154 0.9668007 1.0108018 0.9938802 0.97617453 1.0033377 0.9789418
0.97084874 1.0268608 0.9523201 0.9711742 0.9452533 1.0185012 0.9835652 0.9824307
0.9948995 0.9937406 0.9785263 0.9902603 1.0313091 0.9976573 0.975221 0.9830175
1.0005324 0.95922065 0.9938786 0.9687968 0.9798558 0.9607282 0.97903275 0.9854041
1.0418522 1.078638 0.9952203 1.0503678 0.9734163 1.0251667 0.9877765 0.9783426
0.95557845 0.96788615 0.96432805 0.9939184 1.0335408 1.0125401 0.98410183 0.9863473
0.97830373 1.066442 0.9784231 0.99069405 0.99130493 0.94565016 1.050368 0.9554306
0.9822719 0.97200316 1.0383683 1.0222238 0.95926553 0.9905591 0.9780682 0.9761109
0.96388406 1.0037793 0.95329595 1.0176499 0.9994031 0.9924524 1.0081778 1.0060647

bn1.bias f4 [512]
00000000: f976 e7bc e622 e23b 4b6f cbbb 5c3d 5abd
00000010: de78 d8bb 1287 b2bc 123c 91bd 1224 91bc
00000020: 2596 723c b656 0f3c 83e4 c5bc 2059 8bbd
00000030: 85ea 11bd 126f 9ebd 3000 1d3b 4650 5fbd
00000040: e2e3 853c b409 b8bc 421e 8cbd 1486 21bd
00000050: a77a 02bd 2117 d3bc c157 e93b 83dd 63bb
00000060: a557 a83c 020d 4abc 6d00 9fbc bb6e 2bbc
00000070: f019 bfbb 1784 c33c 5cc2 9bbc 8c68 74bc
00000080: 9a21 18bd 4331 1abd f6ab 1ebd 8e11 3cbd
00000090: d71a e3bb cd04 fbbc be96 5bbd 1e0e eabc
000000a0: 1120 a53d 1eee 74bd daa0 a1bb 89c8 3cbd
000000b0: 3305 94bc cf7f 083b c9c5 4d3d 1233 f2bd
000000c0: 46d2 46bd c8be a2bc 616a e3bc 80b1 f63c
000000d0: cdf0 fbbc 4ab2 61bc 4a3d c1bb f0bb f43c
000000e0: 30f7 47bd a2be 91bd a9e4 8abb a839 c6bb
000000f0: 090a 1bbd abb6 babd 5e7d 9ebc f024 803b
00000100: bdcc b3bd d6d3 22bd 5f9e 003d c8ac 17be
00000110: 6c9c 803c f8d7 1dbd 8ac8 c3bd 60e2 d9bd
00000120: 9ba0 06bd bbd2 debd 7457 12bc ea87 d4bd
00000130: 94b8 9bbc 8e9b 5cbd 4ee1 463c e485 a53c
00000140: 4799 71bd 9206 c93b 9118 b8bc d81f 16bd
00000150: 4513 37be ffb2 c0bd f2a9 56bb 0f47 07bc
00000160: c7ab 67ba 08e4 9bbc b3cb 1abd 294f 743d
00000170: 8083 d9bd 1854 92bd 574d 413c 1271 17bd
00000180: 7cde 22bc 5c91 a0bd c302 8bbd 0c21 69bc
00000190: 5190 88bc 1fff 2cbd c343 2ebe 5309 38be
000001a0: a6d6 c23c dd83 09be 9c8b b2bc 5638 5abc
000001b0: ae7b d8bc 1b0f 9bbc c8cd 14bd abe5 03be
000001c0: af5e 80bb 4e61 6bbd 28df b8bc 0f65 393c
000001d0: f03f c1bb e61e b6bd 3729 95bc c38a a23c
000001e0: 5065 f3bc 1aab 703c cc30 e33c a610 eeba
000001f0: ea99 dbbb c6a5 2dbb 6865 4dbd 21eb 3bbd
00000200: 0f66 fcbb b3d6 04bd 7993 8dbd c216 febb
00000210: 3f07 aebc bcb4 a9bd ebb4 01bd 66eb 0fbb
00000220: 2048 80bd 7c96 8fbc 81f8 3bbd 4825 863b
00000230: 4955 b63a b1a4 e3bc f5d1 1cbc 7eb7 56bc
00000240: 9033 5fbd d814 6bbd 98fc 39bb 462b 703d
00000250: ddd9 4ebd 4141 10bd 5f79 63bc 0365 bbbb
00000260: 3353 12bd ea3b 97bb 7ea0 67bc 18cd 0cbd
00000270: dd8d e1bc e6a9 babc 463a 93bd dab5 d9bd
00000280: 78f4 24b9 4ada 47bb 1aa3 40bd 2240 d0bc
00000290: 8db2 e23b 9f2b dbbc 63b0 cdbc 6e4b 06be
000002a0: 626f 12bd a5d4 00bd 034e 713b ff5d e2bc
000002b0: b318 a6bc dc02 59be 2968 2cbc 45fa 9dbd
000002c0: af62 47bc c190 bebc 9a56 92bc c5c5 5dbc
000002d0: f64b e93b 83f3 96bc b42d c8bc 1926 a93b
000002e0: 98b5 d13c 6924 04be e949 a73b dc59 26be
000002f0: eadf e7bc a69b 96bc 1496 19bc 2a8c 9dbc
00000300: d702 b0bb e70e 48be 1786 12bd ee4f 5dbc
00000310: f28d 81bd 1868 71bc a592 c13a 8d11 52bd
00000320: efd4 21bd b20a 563b bc06 003b 6757 8abb
00000330: 016a 713c 7b5d f9bd 013e 0dbd 1796 02bc
00000340: 4e6d 00be 0a73 fcbc 552d 2eba 06bc 9dbc
00000350: 1641 06bd a7ad 53bd 9b81 85bc 1f23 8fbc
00000360: 1fe6 823c 2488 17bd 1d73 a4bc a4b5 d4bd
00000370: c35b a1bc bd3c 9cbd 1d26 ddbc b5f4 b6bc
00000380: 1f91 4cbd 4aa9 18bd 32da a5bd 556a 3dbc
00000390: c7cd 393d 3093 3e3c 900c 9bba 6779 59bd
000003a0: 4609 4bbc 22b6 a53a b8b8 e0bd 9d5a 7bbd
000003b0: 5f02 02bd 3c8f 92bd 414c c0bc 6720 bebc
000003c0: 90ba 91bc 699a 05bd a5bd 05bc b6be 14bd
000003d0: ed3e 09bc 336e 91bd 5b39 6bbc ec19 d4bb
000003e0: 41f4 2abd 5b3b dabd f0a9 81bd 3dd0 833d
000003f0: a000 eabc 4ed8 6ebd aa17 acbc 64ed 313c
-0.028254973 0.006901133 -0.0062083355 -0.053281173 -0.0066062054 -0.021792922 -0.07091536 -0.017717395
0.014806305 0.008748701 -0.024156814 -0.068041086 -0.035624046 -0.07736029 0.002395641 -0.054519914
0.016344015 -0.022465564 -0.06841709 -0.039434507 -0.03185525 -0.025767865 0.007121057 -0.0034769482
0.020549605 -0.012332203 -0.019409383 -0.010463412 -0.0058319494 0.023866696 -0.019013576 -0.014917504
-0.03714142 -0.037644636 -0.038738213 -0.04591518 -0.00693069 -0.030641938 -0.053610556 -0.028571185
0.08062757 -0.0597974 -0.004932505 -0.046089683 -0.018068885 0.0020828133 0.05023745 -0.11826147
-0.048540376 -0.019866362 -0.027760686 0.030113935 -0.030754471 -0.013775418 -0.005897199 0.029874772
-0.04881972 -0.071164384 -0.004238684 -0.0060493536 -0.037851367 -0.091168724 -0.01934689 0.0039106533
-0.08779285 -0.039752804 0.031401034 -0.14812005 0.015699588 -0.038536042 -0.09559734 -0.10638881
-0.03286801 -0.108800374 -0.008931983 -0.10377486 -0.019008912 -0.053859286 0.012138678 0.020205446
-0.058984067 0.0061348164 -0.022472652 -0.036651462 -0.17878444 -0.09409141 -0.0032755104 -0.008256688
-0.00088375475 -0.019029632 -0.03779192 0.059645806 -0.10620785 -0.07144946 0.011798224 -0.036973067
-0.00994074 -0.07840225 -0.06787636 -0.01422907 -0.016670378 -0.04223549 -0.17018037 -0.17972307
0.023783993 -0.13429208 -0.021795087 -0.013319096 -0.026426163 -0.018928101 -0.03632906 -0.1288058
-0.003917537 -0.057465844 -0.022567347 0.011315598 -0.0058975145 -0.08892612 -0.01820813 0.019841557
-0.029711396 0.014689231 0.02773323 -0.0018162921 -0.0067016976 -0.0026496514 -0.050145537 -0.045878533
-0.007702596 -0.032431316 -0.06912894 -0.007754178 -0.02124369 -0.082864255 -0.031666677 -0.0021960377
-0.06263757 -0.017527811 -0.04589129 0.0040937997 0.0013910915 -0.027788492 -0.009571542 -0.013105271
-0.054492533 -0.057392925 -0.0028379317 0.05863502 -0.05050074 -0.03521848 -0.013883918 -0.0057188286
-0.035723876 -0.0046152966 -0.014137385 -0.03437528 -0.027533466 -0.022786092 -0.07188849 -0.106303886
-0.0001573133 -0.00304951 -0.047030546 -0.025421206 0.0069182576 -0.026754199 -0.025108522 -0.13114712
-0.035750754 -0.031452794 0.003682018 -0.027632711 -0.02027545 -0.21192497 -0.010522881 -0.07713751
-0.012169524 -0.023262383 -0.01786356 -0.013535921 0.007119651 -0.018426662 -0.024435855 0.0051620123
0.025599286 -0.12904514 0.0051052463 -0.16245216 -0.028305013 -0.018384766 -0.00937416 -0.019231874
-0.0053714323 -0.19536935 -0.03577241 -0.013507826 -0.06325902 -0.014734291 0.0014768435 -0.05128627
-0.03950971 0.0032660183 0.0019535264 -0.004221845 0.014734746 -0.12176033 -0.03448296 -0.0079703545
-0.12541696 -0.030816574 -0.0006644328 -0.019254696 -0.032776915 -0.05167928 -0.016297152 -0.017472802
0.01597887 -0.03699507 -0.020074422 -0.10386208 -0.019697076 -0.076287724 -0.026995713 -0.022333482
-0.049943086 -0.03727082 -0.08098258 -0.011560996 0.04536226 0.011631772 -0.0011829305 -0.053094294
-0.012392348 0.0012642781 -0.10972732 -0.061365712 -0.031740543 -0.07156226 -0.02347386 -0.02320881
-0.017789155 -0.03261796 -0.008162891 -0.03631469 -0.008376819 -0.07101097 -0.014356936 -0.0064728167
-0.041736845 -0.106558524 -0.06331241 0.06436203 -0.028564751 -0.058311753 -0.021007378 0.010859821

bn1.running_mean f4 [512]
00000000: 828f 5e3e d8ef 0fbe 5c55 1a3d b033 443e
00000010: e866 89be 2655 dd3c df01 b6bd 4b1e 01be
00000020: 6b77 07be f748 38bd 6261 79bd 72c9 47bd
00000030: b6fe 6abc 899d 0a3d 670e 44bc a54f 903d
00000040: 5a65 be3d dd4c 98be 15d8 ca3d bc24 103e
00000050: 8241 34be f239 7e3d 0ed6 173c 3960 04bd
00000060: bc63 623e 7414 863d 95e9 123e 7f36 173e
00000070: 6984 7b3e 672d 9fbc f0ab 57be a2fc c43d
00000080: 0bf3 493d c700 1c3e 6743 c1bd 9712 993d
00000090: b753 4fbd 5433 5b3c 8d4e 7f3c b5dc 883d
000000a0: 5e04 77be ee0f 0fbe fdcb abbe b0da 803c
000000b0: 1a9e af3c 6bf9 6f3e 1de4 503d 8092 5bbd
000000c0: d62e babd 3a89 53be 9f44 003e a537 33be
000000d0: d161 e53d 334d 6dbc c8d7 563d b87b 153e
000000e0: 8c52 3dbe 8ef8 dcbc c60c d83d 1eeb d0bd
000000f0: 314c 4b3e 59f5 6fbe 76cf 743d 6b7d 2ebe
00000100: b329 5b3e 2bd4 293d a920 c6bc bd29 e0bc
00000110: 032d 12bc 57c6 bc3d 4614 83be 0dcf eabd
00000120: aac9 56bc 220b 893d 1409 0a3c 0fd3 d23d
00000130: 3a01 aebd c7e0 81be 3dc4 dfbd d4db aa3b
00000140: 38be d7bd 12ed de3d 30c0 52be 8d65 1ebc
00000150: bcf5 44be 7a31 c9bd e586 213e eef8 183c
00000160: cde8 99bc 3e54 883e f178 853e 7f56 81be
00000170: 814c 66be 3432 edbd dc39 36be f927 313d
00000180: 8e52 173d 4d38 31be 89e5 423d 63aa 70bd
00000190: 06df f23d 481c 9fbe 34a4 6fbb 2bd6 8ebd
000001a0: d2d1 1c3d de28 8abd c5a8 4cbd 55d1 e6bd
000001b0: b20b e4be d635 08be 11ad 23be 844c 553e
000001c0: 512c 73bc f93c 6ebb 6e8e 9fb9 ccf5 0b3e
000001d0: 589e 463c de7e 27be 9bf0 8fbc d131 3dbe
000001e0: 8605 fbbd 9719 f83d 9aae f03d 1836 933e
000001f0: 6f83 20be 3448 4d3e ff1e 79bd d749 d33d
00000200: d8e9 73be 28dc 8f3c 0d15 96be f8ac a33d
00000210: aed0 053e 7e19 cabd 84f4 f1bb 8541 943d
00000220: 9bae eabe 67d9 c63d 7000 cf3d 8398 2e3e
00000230: 2b89 7d3e 0321 a33d 4153 bb3d 4dd2 9c3e
00000240: 6478 733c 7323 193e 9dfe 76be 8219 653e
00000250: 6e74 1ebe 0757 173e 26a4 903e 59c5 c03d
00000260: 0099 2e3c 7849 adbd 37bd 7a3d 2daa bfbd
00000270: 7c24 813e ec0c e63d 6fbd a23c f711 303e
00000280: 31cf dabd 0d01 823e 8647 5d3e b677 60be
00000290: b1d1 ddbc 2ca9 853d b03a 2cbc 8b7f 8abe
000002a0: 20f8 8a3e 7c35 abbd 352b 6b3d fc0c d03e
000002b0: 6b6f a7bd ad7c 68bd 68e0 453e 6a5b 763d
000002c0: a343 923e 568b 42be e7a5 7cbd 3644 43be
000002d0: c3aa ffbd 4b1a 8ebd 0cc3 9abd 6d53 853e
000002e0: 6799 0fbe 1120 733e 3184 ecbd 6876 a6bd
000002f0: 4a77 07bd 5dd2 bdbc 5ce5 ebbd ddd2 26bd
00000300: ade3 e9be 4966 b7be 67cc fb3e c65a 46be
00000310: 87ea 3d3e 2303 34bd e9ac 2ebe dadc 0abd
00000320: cecb 09bd c8c0 c33c 6f28 223e 81af f9bc
00000330: beb1 42bb e8c2 17be 953b c83d 0d75 f23d
00000340: 737e 06be b2e7 0b3e 6c69 16be 2093 55be
00000350: 1c3d 8dbe e646 a5be f903 b4bd 1991 2dbe
00000360: 9407 b63e 96cf 81be 0826 43bb aa37 b2bd
00000370: 0ade 30be 60a2 093d a2c1 713d 8568 cd3d
00000380: b351 0d3d b50c 40be 6b70 043e dafa 1bbe
00000390: 012f 7abd f0c8 b83e a043 6b3e 9f3d 57bd
000003a0: 7840 cfbd 5eef 353e 25fe 7bbe eb50 91be
000003b0: 9b85 dbbd b9c1 6a3d 08ff 45be 72a2 39be
000003c0: 5391 48be 06b1 ccbe 8944 51bd 9f70 4bbe
000003d0: c903 a73e 1827 78bd 0cfc 2ebe 3f3f 253e
000003e0: 6039 21bc 698f 93be f316 213e 3867 0a3e
000003f0: 1835 3cbc bce6 28be 32c3 a03c aee1 46be
0.21734431 -0.14056337 0.03767906 0.19160342 -0.26836324 0.027018141 -0.08887076 -0.12609212
-0.13229148 -0.04499146 -0.060883887 -0.048776098 -0.014342954 0.033841643 -0.011966324 0.07046441
0.09296675 -0.29746142 0.099044956 0.14076513 -0.17603114 0.06206698 0.009267343 -0.032318328
0.22108358 0.0654687 0.14346917 0.14766882 0.24562229 -0.01943083 -0.21061683 0.096184984
0.04930405 0.15234672 -0.09436684 0.07474249 -0.050616946 0.013378937 0.015582693 0.066827215
-0.2412276 -0.1397092 -0.33554068 0.015729278 0.021437693 0.23434989 0.050998796 -0.05360651
-0.090909645 -0.20657817 0.12526177 -0.17501695 0.112002976 -0.014483738 0.05245188 0.14597976
-0.1848852 -0.026973989 0.10549311 -0.10201095 0.19853283 -0.23433436 0.059768163 -0.1704003
0.21402626 0.041462105 -0.024185495 -0.027363652 -0.008921864 0.09217518 -0.25601405 -0.11465273
-0.013109604 0.066915765 0.008425016 0.102941625 -0.08496328 -0.25366804 -0.10926101 0.005214194
-0.10534328 0.10885061 -0.20581126 -0.009667766 -0.19234365 -0.0982389 0.15774114 0.009336693
-0.018787766 0.26626772 0.26068833 -0.25261304 -0.22490121 -0.11581841 -0.17795509 0.04325101
0.036943965 -0.17306633 0.047582183 -0.058756243 0.118589446 -0.31076264 -0.0036566379 -0.06974443
0.038286038 -0.06746076 -0.04996564 -0.11270396 -0.44540173 -0.13301787 -0.15983988 0.2082997
-0.014842109 -0.003635226 -0.00030432962 0.13667983 0.012122713 -0.1635699 -0.017570784 -0.18476035
-0.12256913 0.12114256 0.117520526 0.28752208 -0.15675138 0.20047075 -0.060820576 0.10316818
-0.23819673 0.017561033 -0.29312935 0.079919755 0.13067886 -0.098681435 -0.007383885 0.07239059
-0.45836338 0.09709435 0.10107505 0.17050366 0.24759357 0.07965281 0.09146739 0.30629197
0.014860246 0.14954929 -0.24120565 0.22373012 -0.15474102 0.14779292 0.28250235 0.09412641
0.010656595 -0.08461279 0.061215606 -0.0935863 0.25223148 0.112329334 0.01986572 0.17194353
-0.1068405 0.25391427 0.21609315 -0.21920666 -0.027077528 0.065264076 -0.010512039 -0.27050433
0.2714243 -0.08359811 0.057414252 0.40634906 -0.08175548 -0.056759525 0.19323885 0.060145773
0.28567228 -0.18998465 -0.061681654 -0.19068989 -0.12483742 -0.06938609 -0.075567335 0.2604021
-0.14023362 0.23742701 -0.11548651 -0.08128053 -0.033072747 -0.023171598 -0.11518356 -0.04072844
-0.45681515 -0.35820225 0.49179384 -0.19370565 0.18546496 -0.043948304 -0.17058147 -0.033902027
-0.03364163 0.023895636 0.15835737 -0.030479195 -0.0029707993 -0.14820445 0.09776989 0.11838732
-0.13134174 0.13662603 -0.14688653 -0.20856905 -0.27585685 -0.32280654 -0.0878982 -0.16949882
0.35552657 -0.25353688 -0.0029777307 -0.08702023 -0.17272201 0.03360212 0.059022553 0.10029701
0.034501743 -0.18754847 0.12933509 -0.15232411 -0.061079983 0.36090803 0.22975016 -0.052549
-0.10119718 0.17767093 -0.24608667 -0.28382048 -0.107188426 0.057313655 -0.19335568 -0.18128374
-0.19586687 -0.39978808 -0.05109075 -0.1986718 0.32620075 -0.060584158 -0.17088336 0.16137408
-0.009840339 -0.2882035 0.1573141 0.13515937 -0.011487268 -0.16494268 0.019624326 -0.19422027

bn1.running_var f4 [512]
00000000: bddf f73c 30e3 9e3c 3fc8 0a3d 4a6d 123d
00000010: 061c ea3c eba7 de3c 8521 c63c 794a 0d3d
00000020: 682b da3c 975f 063d 006b 273d b8b8 d53c
00000030: 83e1 093d 6d89 db3c 4e8a 233d 0c33 043d
00000040: 41e6 e73c 2aab c03c c22a 0b3d 90aa a33c
00000050: 4511 cd3c 2727 203d f547 1b3d a413 e23c
00000060: 11fe f43c 8b1d a43c 402b 323d cc6f dd3c
00000070: fea5 b93c 2581 1f3d 4376 093d 8bfb f53c
00000080: 9e37 db3c ff2d fd3c 0f5b 9a3c 00f5 193d
00000090: 63b6 cf3c 7e8a e03c acf7 af3c 4615 e93c
000000a0: 06e2 113d 3ae5 ce3c bae3 c43c e7de 0f3d
000000b0: 8eda b03c 64cb 1f3d 563e 203d ac27 de3c
000000c0: 332d df3c f7fa 183d a8ec 013d 4847 d53c
000000d0: caf6 af3c 9b35 183d ee1d 173d 8362 f43c
000000e0: 8ba0 043d 93b7 043d ba50 303d b5c1 e03c
000000f0: 04ab 003d 5934 163d e8d2 dd3c cdb5 db3c
00000100: 9756 023d 0f35 ec3c b544 073d 5b60 ca3c
00000110: f90e c63c e5d1 f33c b6fe e73c 4242 d43c
00000120: 49b8 033d 1369 923c 3a19 fd3c d695 0b3d
00000130: 954e e43c afce fa3c fa6f cd3c 5931 023d
00000140: f2aa c73c cfae 0e3d d582 0d3d e03a 143d
00000150: bc15 ed3c 52fb 0f3d ece7 ae3c 3f0c d63c
00000160: d423 e83c bb7e bc3c 9bc0 043d d1f0 073d
00000170: 29c7 013d 0923 1d3d 5ee4 003d 6432 053d
00000180: 52e5 c93c 16d2 203d b4a5 0f3d 0864 173d
00000190: aa3f 063d 536b b13c fd2e cf3c 3b1e f73c
000001a0: b4e4 243d e10a 0a3d c56e 3d3d b0b8 b53c
000001b0: 7fa7 fc3c e1c8 f43c e926 e43c 31c8 063d
000001c0: 39c9 c03c 0d7e 393d 6279 c13c 22a6 123d
000001d0: 817e be3c 9bc3 d93c 41f8 db3c 5417 ce3c
000001e0: 94fb e33c 44f7 ef3c 4e8d 083d 4351 b13c
000001f0: 0de2 063d b62a e23c ed32 d93c 0da6 053d
00000200: a86b eb3c cb41 063d 399a b63c 63b9 2d3d
00000210: 570c 053d 353d ca3c 2f61 ce3c db5c bf3c
00000220: 8fe9 223d 7b0e c63c 16cb 453d 938f cf3c
00000230: 2c1d ae3c 72e5 283d 8d3e 053d a3d8 ca3c
00000240: 0a51 e63c 45a4 053d 2d87 143d f9a9 223d
00000250: ec5f be3c 6abc c23c 9d0f e63c 93c7 113d
00000260: 67ad 173d 7b2a c03c 59ad a73c 94cb c03c
00000270: 3db0 0d3d adeb 053d e38b cb3c 09c4 f23c
00000280: 6c71 2b3d 4484 013d 018c d33c dcea ce3c
00000290: 85d8 fd3c 19b6 d63c 8099 0a3d d650 f63c
000002a0: 8c0f 9a3c fdf2 203d 510e 003d 3d06 b73c
000002b0: caac 1a3d 6685 f23c 9834 ef3c 904e f23c
000002c0: 01bc 173d b08d d43c 3027 d63c 5e9f f33c
000002d0: 285c d53c 0eba e63c 5ee0 023d 695f 0a3d
000002e0: c6f7 2e3d c3e4 ef3c e887 bc3c c91d 073d
000002f0: a3d7 ed3c cb02 d03c d780 153d ce25 ba3c
00000300: 4acf cd3c 7bc2 0d3d 39a5 bf3c 46ad 113d
00000310: def4 d13c 4341 e83c 297c c83c e237 e63c
00000320: 92b1 c13c 2f8e 183d 0e8f d13c 24cb 153d
00000330: dde2 103d 4b82 063d 63fb 2c3d 8c46 9c3c
00000340: 686a 083d cffc da3c 9d05 113d 0d5c ee3c
00000350: 4701 b53c 12fa fd3c 1736 0e3d da5e ce3c
00000360: d31f 213d a92f 213d 4a30 323d d7f4 043d
00000370: e675 053d eb67 203d 2ed1 b13c caba c43c
00000380: a701 b63c 7250 083d f6bf 193d 07b8 e53c
00000390: 47c7 133d c08f 143d dfb6 cb3c e7d1 003d
000003a0: 1573 b23c 7fd4 eb3c cb68 cb3c 18c9 0e3d
000003b0: 782d 073d 2b08 013d 3e06 d43c e1f2 d83c
000003c0: 8ce2 a53c d4df 9d3c afec 1a3d 006b 0e3d
000003d0: 643e 033d 64ee 033d 6e9a c53c c264 cb3c
000003e0: b4d0 003d e723 fb3c d26b 083d f458 fa3c
000003f0: 5dc3 073d d946 d03c cfe0 e23c 84b7 ef3c
0.030258054 0.01939544 0.033882376 0.035748757 0.028577816 0.027179679 0.024185905 0.03449485
0.026632026 0.032806005 0.040873528 0.026089057 0.03366233 0.026798928 0.03992682 0.032275245
0.028308036 0.023519117 0.033976324 0.019978791 0.025032649 0.03909984 0.03791042 0.027597256
0.029906305 0.020033618 0.043498278 0.027030848 0.022662159 0.03894152 0.03356005 0.030027172
0.026759919 0.030905722 0.018842248 0.037587166 0.025355523 0.027409788 0.021480404 0.028452527
0.035615943 0.025255788 0.02403437 0.035124686 0.02158859 0.039012328 0.03912195 0.027118526
0.027243232 0.037348714 0.031719834 0.026034966 0.021479983 0.037160497 0.036893778 0.02983213
0.03237967 0.032401633 0.043045737 0.027436117 0.031413093 0.036671016 0.027078107 0.026820088
0.03182086 0.028833894 0.03302451 0.024704149 0.024177061 0.029763171 0.028319698 0.0259105
0.03215817 0.017872369 0.030895818 0.03407844 0.027869502 0.030616133 0.025077809 0.031785343
0.024373505 0.03483468 0.0345486 0.03618896 0.028941028 0.035151787 0.021350823 0.026128886
0.028337397 0.023009649 0.032410245 0.033188645 0.031684075 0.03836349 0.031467788 0.03251876
0.024645481 0.039262854 0.035070136 0.03696063 0.03277556 0.021657621 0.02529096 0.030165782
0.04025717 0.03370178 0.046248216 0.022182792 0.030841587 0.029880943 0.027850585 0.03290576
0.02353345 0.045286227 0.02361745 0.035802968 0.023253681 0.02658253 0.026851775 0.025157608
0.027829923 0.02929271 0.033337884 0.021645194 0.032930423 0.027608257 0.026513541 0.03262906
0.028737858 0.03277759 0.022290336 0.042413127 0.03248247 0.024687389 0.025192825 0.023359707
0.03977352 0.024176827 0.04828938 0.025337016 0.021254145 0.04123444 0.032530356 0.024761504
0.028114814 0.032627363 0.036261726 0.03971288 0.023239098 0.023771483 0.028083617 0.03559072
0.037030604 0.023457756 0.0204684 0.023534574 0.034591902 0.03269546 0.024846977 0.029634492
0.041856214 0.03162028 0.025823595 0.025258474 0.030987034 0.026209878 0.033837795 0.030067842
0.018806241 0.03929423 0.031263653 0.022341842 0.03776244 0.029604625 0.029199883 0.029578477
0.03704453 0.025946468 0.026141733 0.029739078 0.02604492 0.02816489 0.031952254 0.033782396
0.042716764 0.029283887 0.023014024 0.03298739 0.029033488 0.025391957 0.036499824 0.022723105
0.025123257 0.0346093 0.023394214 0.035565637 0.025629457 0.028351432 0.024473267 0.028102819
0.023644242 0.03724497 0.02558091 0.036570683 0.035372604 0.0328391 0.04223193 0.019076608
0.033304602 0.026731877 0.035405744 0.029096628 0.022095336 0.031003032 0.034719553 0.025191713
0.03933699 0.039352093 0.043503083 0.03246006 0.03258314 0.039161604 0.02170619 0.02401485
0.022217585 0.033279844 0.037536584 0.028041853 0.036078718 0.036269903 0.024867473 0.03145018
0.021783391 0.02878785 0.024830243 0.034859747 0.033002347 0.03150193 0.025881883 0.026483001
0.020249628 0.019271769 0.037823375 0.034770012 0.032041922 0.03220977 0.02412149 0.024828319
0.031449035 0.030656768 0.03330595 0.030559994 0.033145297 0.025424408 0.027695088 0.029262312

fc2.weight f4 [256, 512]
00000000: 5bac af3b 7899 cfbc eba2 33bc bba6 fa3c
00000010: d8b2 03bd 7144 efbc 46ae b53b e58b 8fbc
00000020: 5056 c8bc 93b8 60bc 96d3 893d c0fe cc3c
00000030: 3a4b 6e3a 27cb 873c 3377 31bd d336 e23c
00000040: e718 62bc 866b 23bb 03eb ff3c 1ed8 823d
00000050: 2957 8b3d f14f 263d 5cc7 7dbd 047a a4bc
00000060: 279e e2bc 4a7b bcbb b059 1e3c 9270 cbbb
00000070: 7ba8 e3bc 82ac 1b3d a2be 513c 86cf f13c
00000080: a0c8 043c bca9 8f3c 432e ed3c d6cc 943c
00000090: fde2 283d 771d 613a 6787 8b3c c5a5 47bb
000000a0: 3185 94b8 26f6 153d e4bd 8c3c f70c cc3c
000000b0: 2474 19bd 413b 8bbc 56c0 a83c bc19 053d
000000c0: 1bca fa3c 65de bb3c c7ab f13c e920 613c
000000d0: 39ed 3b3c c76b d6bc 9d95 28bd e908 4bbd
000000e0: 4566 08bc a4ad 363c 21d9 15bc aa95 c33c
000000f0: 06f0 fe3b 62e5 61bd 39fb 8b3c 7576 1a3c
00000100: 8c86 353d 263c b7bb 2e7d 063d 317d 46bc
00000110: cbae 0fbd 24b1 203d c91f 063b 7591 da3a
00000120: 36c8 1fbc 5b39 8f3b 0842 8bbc c2e1 923c
00000130: 9a85 433c 9249 933c 9062 7b3d c60d e13c
00000140: 679d a13c 087a 1ebd ac12 a4bc 88ab a8bc
00000150: 8778 9b3c fd97 763c a0d0 abbc 0689 4bbd
00000160: ff3d 8dbc ccbc a6bb afb0 3dbd 6362 513d
00000170: 8e07 453b b500 ecbb f251 e93b e052 d13c
00000180: 1fe8 cebc 504e 56bc e1e8 5bbc acee 51bd
00000190: 5351 ed3c 8c7f 01bd a2f5 adbb 392f df3c
000001a0: eecd 1bbd 8202 dabc d8a4 143d e47f 4dbd
000001b0: f3dd 873c 7a9d 5c3d d640 c4bc a5f5 1a3c
000001c0: e788 6c3d 77e7 ef3c a881 573c 1440 d3bc
000001d0: 479a a03b 3f2d 173d 1a2f 473d add0 07bd
000001e0: c6f1 4f3c 8870 133b 9644 543d b56b 0b3d
000001f0: ef2b 0a3d 0acf 8e3b e638 d73c b0fe 433d
00000200: bba6 bdbc a145 c23c 238b b9bc 7d4b 3ebd
00000210: 1d14 2e3c 6b12 44bd e520 133c 7813 d53c
00000220: 51b6 78bd 8f3c 29ba fb3f 903d f3a6 583d
00000230: 8331 d6bc 2bf2 c13c cede cb3b 594e f43c
00000240: 6b1d dd3c f4f1 073c 919a 043d 5fd3 4abd
00000250: 92f8 e33b eb36 d4bc cd21 da3c 8066 ddba
00000260: cbc7 f0bb b853 f33a 97d7 f43c 86ed 193a
00000270: 7537 1abd 5d0e 6fbd b375 ccbc 9ce4 833c
00000280: 484f 3c3c ad59 ee3c 4c7f 583b f2b0 af3c
00000290: d36e efbc 0434 4bbd 23ef 67bc a439 553c
000002a0: e07b a23a 74a5 03bc 578e 49ba c28c e33b
000002b0: d25f 3c3d b4f0 1cbd e2d1 9c3c b249 123c
000002c0: d9e3 67bc 056e bfbb 7409 a43c bb61 4e3c
000002d0: a116 783c 9dc7 a3bc 0932 a2bc 5e34 2a3c
000002e0: a846 42bd 70c3 d3bc 7f49 03bc e173 23bb
000002f0: fb9a b5bc fcde 2e3c c46d 853b a8f0 92bc
00000300: b3c6 55bc d6ce 663c 1ad4 853c 3e9a d93c
00000310: 00d7 2c3a 3a89 e6bc ab0f 6d3c e1f9 10bc
00000320: 1fb2 fe3c 04a2 bfbc 704b fdbc f08e c8ba
00000330: 93e4 67bd bfee 273d 723b 223c e138 4fbd
00000340: e832 d33c 8b50 13bd 5a8d 063c 4e0f dfbc
00000350: 342b aa3c a1ce 33bd 409a 35bc e750 f4bc
00000360: 7675 193c 0a34 9cbc fff7 00bd 9736 2fbd
00000370: aa18 e8bb 633d d8bc b9b3 853c 006a fcbb
00000380: c410 843c 0f16 583c b6e4 893c f91f f43c
00000390: 437c 07bd ecf0 903d abfe 3f3d b609 2ebd
000003a0: b80e 0a3d ad9d 5cbc 8a19 e23c e2c6 b43b
000003b0: 0700 55bd 7188 33bc a9cb 9d3d 77c1 81bd
000003c0: e135 6bbc 208f 3dbd 62db 27bd 4009 aa3c
000003d0: 348c ecba 6ef9 443c b873 96ba cb3c 39bd
000003e0: c9e4 9bbc 8bf3 84bb 5125 243d c200 f13c
000003f0: 7268 8d3c 75ea 73bd e154 b33c 3de3 193d
0.0053611225 -0.025341734 -0.010964136 0.030597081 -0.03215298 -0.02920744 0.0055444567 -0.017522762
-0.02445522 -0.013715881 0.0672981 0.025023818 0.0009090189 0.016576363 -0.043326568 0.027614033
-0.0137998825 -0.0024935915 0.031239992 0.06388877 0.06803734 0.04060358 -0.061957702 -0.020077713
-0.027663304 -0.005752002 0.009664938 -0.006208488 -0.027790299 0.038006313 0.012801798 0.0295179
0.008104473 0.01753699 0.028952723 0.01816408 0.041232098 0.00085874595 0.017032338 -0.0030463797
-7.081999e-05 0.0366117 0.01718039 0.024908526 -0.037464276 -0.016996028 0.020599525 0.032495245
0.03061395 0.022933194 0.029500855 0.013740757 0.0114701325 -0.02617444 -0.041158307 -0.049569044
-0.008325164 0.011149798 -0.009146006 0.023875076 0.007780078 -0.055150397 0.017087566 0.009427656
0.044317767 -0.005591887 0.032834224 -0.012114809 -0.035078805 0.039231434 0.0020465723 0.001667543
-0.009752324 0.004370851 -0.01699926 0.017929915 0.011933709 0.017979417 0.061373293 0.027472388
0.019728376 -0.038690597 -0.020028435 -0.020589605 0.01897837 0.015050885 -0.020973504 -0.049691223
-0.017241476 -0.0050884243 -0.046311077 0.05111922 0.0030064317 -0.0072022327 0.0071203643 0.025552213
-0.025257168 -0.013080195 -0.013422222 -0.051253006 0.028969442 -0.03161578 -0.0053088227 0.027244197
-0.038038187 -0.026612524 0.03629002 -0.050170794 0.016585326 0.05386112 -0.023956697 0.00945798
0.057747748 0.029285176 0.013153471 -0.02578739 0.004901204 0.036908384 0.048628904 -0.033157993
0.012691921 0.0022497494 0.05182322 0.034038264 0.033733305 0.004358177 0.026272248 0.04785031
-0.023150792 0.023714842 -0.022649353 -0.04645871 0.010624913 -0.047869127 0.008980011 0.02601026
-0.060720745 -0.00064558623 0.07043453 0.05289359 -0.026146656 0.023675045 0.0062216287 0.029822515
0.026991567 0.008297432 0.03237397 -0.049517985 0.006957122 -0.025905093 0.026627446 -0.0016891509
-0.007348036 0.0018564379 0.029887957 0.00058718806 -0.037650544 -0.058363307 -0.024958467 0.01610022
0.0114935115 0.029095495 0.003303486 0.021446679 -0.02922765 -0.049610153 -0.014156136 0.013014231
0.0012396537 -0.008035053 -0.0007688752 0.00694427 0.04598982 -0.03831549 0.019143049 0.008928703
-0.014153444 -0.005841973 0.020024039 0.012596543 0.015142114 -0.019992644 -0.01979925 0.010388462
-0.047430664 -0.025850028 -0.008013128 -0.0024940895 -0.022168627 0.010673281 0.004071923 -0.01793702
-0.013047862 0.0140873995 0.01633649 0.026562806 0.0006593317 -0.028141607 0.014469068 -0.008848638
0.031090794 -0.023392685 -0.03091976 -0.0015301388 -0.05661447 0.04099917 0.009901868 -0.050591353
0.02578111 -0.035965484 0.008212412 -0.027228978 0.020772554 -0.04389823 -0.011084139 -0.029823733
0.009366384 -0.019067783 -0.031486508 -0.04277667 -0.0070830183 -0.026396459 0.01632105 -0.007703066
0.016121276 0.013188853 0.01683269 0.029800402 -0.03307749 0.07077202 0.04687373 -0.04248973
0.033705443 -0.013465327 0.027600069 0.0055168727 -0.05200198 -0.010957823 0.07704861 -0.063357286
-0.014356107 -0.046279073 -0.040980704 0.020756364 -0.0018047155 0.012022359 -0.0011478579 -0.045223992
-0.019029992 -0.004057353 0.04007465 0.029419307 0.017261717 -0.059549768 0.02189106 0.037570227

fc2.bias f4 [256]
00000000: 97f7 9fbc ba33 5fbc b6c9 5cbb cdb4 c2bc
00000010: d7b2 7bbc 0e29 f639 2892 d63b 4990 1b3c
00000020: cc03 1ebc 012b 0f3d 319c 273d 3b08 5abc
00000030: b353 0abd 76c8 e23a 9997 11bd 91df 013d
00000040: 2597 ba3c cea4 0e3d e64d cbbb d379 0b3d
00000050: 14aa 12bd 86f4 613c f8ed dc3c 038d 363c
00000060: 89ab 18bc 1d8d aa3c 3a64 d13c 9bac c53c
00000070: 1fcb 253d 1ee1 0bbd ddcf 113d 3a29 27bd
00000080: 24eb 5ebc 1dcb febc 5c92 2abd 120b 35bd
00000090: 8dfd 263d 8b27 243b b0b1 00bc 7f8c bb3b
000000a0: 96b7 19bd 69db 773c daf0 bebc d113 e1bc
000000b0: d593 3e3c f99c 593c 64f3 163c 8dd1 c2bc
000000c0: 2e47 453c 24be 07bd e466 bbbc 0f4a fdbc
000000d0: a5a6 0bbd cb08 c4bb 82ab efbc d827 eb3a
000000e0: 21cc 13bb a431 01bd 8f7a 1c3d 6523 223d
000000f0: 8869 ffbc 6509 e6bc b3ea 84bc 59b7 0abd
00000100: bc52 dbbc b3be bb3c 6599 373a c7f3 233c
00000110: e3e7 143c 1501 07bd 446f e7bc 1be6 2b3d
00000120: 737d 1f3d 9bf0 543c a67b 513c 94c3 10bd
00000130: 6675 6fbc 3dfd ac3b 14d6 183d fefd 2abd
00000140: a89a 26bc bdcf 2fbd 7dca 673a d749 2d3c
00000150: c86b 763c 47bd 22ba be69 0dbc c147 0a3d
00000160: 4e9e 1d3d 007d 9fbc 9c66 19bc 03a6 1d3c
00000170: b680 c13b 2038 003c 3c56 c9bc f5de 01bd
00000180: 2e40 d2bc f407 243d 1725 e1ba 6faa c63b
00000190: e7e2 303c 6b17 8c3b a415 11bd ff98 ab3c
000001a0: f756 5abc fa78 1fbd 2bda 133d 94a7 0bbd
000001b0: 956a 21bd 8ec0 31bd 843f a7bc 2167 0f3d
000001c0: 0c2b 20bd 1d7f f3bc a205 fcbc 0016 043d
000001d0: 07c6 a6bb 3442 52bc 5d0d 07bd 61b8 3abb
000001e0: 27e1 a53c a23d 93b9 ed4f 9b3c 7df3 88b9
000001f0: 2949 8dbc 543e 273b ab80 023d fc17 b1bc
00000200: 65ad 1bbd 1814 db3b 118b bbbc 4e26 12bd
00000210: b937 eb3c 80d5 eabc 7b52 333d 7857 d6bb
00000220: 83c1 643c a334 2dbd 8585 efbc f383 b23c
00000230: 81aa 913b 6b37 40bc 0b82 bc3b eadb fd3c
00000240: be33 31bd 560f 10bd c139 7c3c 8217 21bd
00000250: f98b 26bd 50e8 f83c a938 20bc aa55 ae3b
00000260: 4727 64bc f789 6f3c dda7 a93c 28cb 8cbc
00000270: bd1d 0dbc 83cd 153d edd7 303d a3df bf3c
00000280: a55b 4abc 86b8 02bd 04f2 323d 9d51 da3c
00000290: 2585 f1bc f2ab f7bc bbbd 383c fa9a afbc
000002a0: 26ff 02bd 4035 963c a1ea e93c 5050 03bd
000002b0: afe8 0d3b 56ad e73c 8f1d 46bc 4264 a73c
000002c0: 6bb8 343b af85 e53b 31c8 2a3d 8e43 193d
000002d0: 6538 91bc fd3d b7bc 6880 1c3d 1eb0 073b
000002e0: b489 0fbd 3bb0 90bc 09f1 de3c e019 0abd
000002f0: 0e3e a23c fcb3 8dbc b300 333d 306f b43b
00000300: 4c34 c8b8 0fda 943c c1da 27bc 940e be3b
00000310: d1c2 023d c5a7 cebc 7d95 003d 45e1 18bc
00000320: eb48 e53c 4628 4b3c 84de 16bd 5761 953c
00000330: 7073 193d 10fb aabb 0f70 2b3d 6cc6 cb3c
00000340: f96e a6bc a679 0f3d f98e 27bd 3a3f 11bd
00000350: a868 213d 8b81 253d fa95 c53c 786e 87bb
00000360: 8970 85bc 4258 ae3b f7c8 863c 06c7 0e3d
00000370: 66ef c43c efc0 203d 543f 07bd d62b b3bc
00000380: fe2f 12bc 3d96 7b3a 0828 1bbc 32fe 433c
00000390: a408 8a3b c5c1 003d 4451 2f3d 1786 363c
000003a0: f1d2 21bd dafc 033d a55a e1bc f551 a13c
000003b0: 882c e7ba e7c7 153d bb68 f8ba 3af9 c2ba
000003c0: 1690 e6bb 8e95 85ba 1e67 e1bc 1777 eb3c
000003d0: 7fe3 02bd c6ec b6bc 507b 28bd 7025 c3bc
000003e0: a299 8bba fe6b a83c 366d 0abc 5eea a0bc
000003f0: 11aa 833c d14b 9fbc f5e6 a6bc cc4c 163d
-0.01952724 -0.013623172 -0.0033689565 -0.023767853 -0.015362463 0.00046951364 0.006548185 0.0094948495
-0.00964446 0.03495312 0.04092044 -0.013307626 -0.033771228 0.0017302174 -0.035544965 0.03170735
0.02277715 0.03482514 -0.0062043546 0.034051728 -0.03580673 0.013791209 0.026968941 0.011142018
-0.009318241 0.020819241 0.025560487 0.024130156 0.040476914 -0.034150235 0.035598624 -0.0408108
-0.013605867 -0.031102711 -0.041643485 -0.04420001 0.04076915 0.0025047984 -0.007854864 0.0057235355
-0.037528597 0.015127995 -0.023308206 -0.02747527 0.011631926 0.013282054 0.009213302 -0.023781562
0.012040896 -0.033140317 -0.02287621 -0.030919103 -0.03409447 -0.0059824935 -0.029256586 0.0017940952
-0.002255209 -0.03154148 0.03820282 0.039584536 -0.03117825 -0.028080652 -0.016225195 -0.03386626
-0.02677285 0.02291808 0.00070037536 0.0100068515 0.009088489 -0.032960016 -0.028251298 0.041967493
0.038937997 0.012996818 0.012785828 -0.035342768 -0.014615392 0.005279212 0.037313536 -0.041746132
-0.010168709 -0.042922724 0.0008842124 0.010576687 0.0150403455 -0.0006208014 -0.008631168 0.033759836
0.03848105 -0.019468784 -0.009362843 0.0096221 0.005905236 0.007825881 -0.024577253 -0.03170677
-0.025665369 0.040046647 -0.0017177191 0.0060627977 0.010796285 0.0042752526 -0.03542103 0.020946978
-0.013326398 -0.03893373 0.036096733 -0.03409536 -0.039408285 -0.043396525 -0.020416029 0.03501046
-0.039103553 -0.029723698 -0.030764405 0.032247543 -0.0050895247 -0.012833167 -0.03297173 -0.0028491246
0.020248963 -0.00028083945 0.01895901 -0.00026121354 -0.0172468 0.0025519328 0.03186099 -0.021617882
-0.03800716 0.006685745 -0.02289346 -0.03568106 0.028713094 -0.028666258 0.04377983 -0.006541189
0.013962152 -0.042286526 -0.029238472 0.021791434 0.0044453745 -0.011731963 0.005752807 0.030988652
-0.043262236 -0.035170875 0.015394629 -0.03932906 -0.040660832 0.030384213 -0.009779134 0.0053202705
-0.01392538 0.014620296 0.020709926 -0.017186716 -0.008613047 0.036572944 0.043174673 0.023422068
-0.012350951 -0.031914257 0.043687835 0.026650244 -0.029482434 -0.030233357 0.011275704 -0.021436203
-0.03198161 0.018335938 0.028554263 -0.032059014 0.0021653583 0.028280895 -0.012092008 0.020433549
0.0027575742 0.0070044617 0.041694824 0.03741794 -0.017727086 -0.022368426 0.038208395 0.002070434
-0.035043433 -0.017662158 0.027214544 -0.033716083 0.01980498 -0.017297737 0.04370184 0.0055064186
-9.546484e-05 0.018170385 -0.010245026 0.0058000777 0.031924073 -0.025226483 0.031392563 -0.009331052
0.027988872 0.012399739 -0.0368333 0.018234892 0.037463605 -0.0052179173 0.041854914 0.024874888
-0.020316588 0.035028122 -0.040907834 -0.03546069 0.03940645 0.040406745 0.024119366 -0.004133042
-0.016289013 0.0053205797 0.01645325 0.034857772 0.024039935 0.039246496 -0.03301938 -0.021871489
-0.008922575 0.00095972774 -0.009469993 0.01196246 0.004212456 0.031434793 0.04280211 0.011140368
-0.03950781 0.03222356 -0.027509043 0.0196924 -0.0017637173 0.036567595 -0.001895211 -0.0014875301
-0.0070362194 -0.0010191665 -0.02751499 0.02874331 -0.03195524 -0.0223297 -0.041133225 -0.023821563
-0.0010650645 0.020559307 -0.0084488895 -0.019643005 0.016072305 -0.019445332 -0.0203738 0.036694333
